data/parameters/iter_final/fully_connected_weights:0.npy (npy, 190128 bytes, 1 tensors)

array f4 [1900, 25]
000000 c0 47 8a bc af 4e 65 be ee 6d 7f be 1b f5 01 40
       -0.016879916 -0.22393297 -0.24944279 2.030585
000010 ec 7d a4 bd 20 e9 7e be 38 3b 4b be 31 b2 c6 3d
       -0.0803183 -0.24893618 -0.19846809 0.09701956
000020 6d c1 87 3e 9a 69 37 be ac 83 19 be 3c 6b 03 be
       0.2651476 -0.17911378 -0.14991635 -0.12833875
000030 7f 1c 9b bd a0 7f b3 3d 08 35 37 be 5c b3 a4 bd
       -0.075737946 0.08764577 -0.17891324 -0.080420226
000040 50 8d 4f be ca cf 69 bd 53 a1 df be 36 32 07 3d
       -0.2026875 -0.05708293 -0.43677768 0.03300687
000050 c3 fb 16 be 7b 84 11 be 76 af e3 bd 8a b1 e0 bd
       -0.14744477 -0.14210694 -0.11117451 -0.10971363
000060 f4 ba ff be bf 6c 87 3c 0a be 38 3b d2 c5 0a 3c
       -0.4994732 0.016531346 0.0028189444 0.008470016
000070 5c ff 65 bb 6d 9a 93 3c c0 42 e0 bb a1 e7 77 bb
       -0.0035094833 0.018017972 -0.0068438947 -0.003782727
000080 ae 7b 22 3b 65 0b 50 3d 30 80 50 3d 82 97 63 bc
       0.0024792957 0.050792117 0.0509035 -0.013891103
000090 ff 72 14 3d c3 00 f8 3c c7 ae 5a 3c d7 9d b5 bb
       0.03624248 0.0302738 0.013347334 -0.0055424976
0000a0 c7 73 03 3d dc 65 8a 3d 28 5f 6f 3d ce b5 8e 3b
       0.032092836 0.067577094 0.058440357 0.004355169
0000b0 e8 97 9a bc 39 c6 62 3b fa 34 c2 3c db b7 1f 3c
       -0.018871263 0.0034603013 0.023706902 0.009748424
0000c0 83 9e 15 3d 7b 43 82 3d bb 17 13 be 52 e0 91 be
       0.03652812 0.06360527 -0.14364521 -0.28491455
0000d0 55 f9 82 be 52 12 10 3e 1b ac 2d 3e 0a e9 92 3d
       -0.2558085 0.14069489 0.16960184 0.07173355
0000e0 f8 51 b2 bc f9 89 a9 3e 0b 2c 0a be 2f a2 29 bb
       -0.021767601 0.33113077 -0.13493364 -0.0025884022
0000f0 05 89 9d 3d d7 c4 a0 3d 29 20 00 3d bd e1 2d be
       0.0769215 0.07850044 0.03128067 -0.16980644
000100 82 26 63 3e f2 64 c9 bb 89 f3 c4 3d be 1b 35 be
       0.22182658 -0.006146067 0.09616763 -0.17686364
000110 d5 fd 92 be 7c 61 c2 3d 8e 98 69 bb a2 83 cb 3d
       -0.28709283 0.0949125 -0.0035643908 0.09937216
000120 9a 53 b2 3c 99 f8 d4 3c 47 b4 c7 3c e5 15 d4 3d
       0.02176838 0.025997447 0.024377955 0.103557386
000130 89 ad 20 bd 9f f1 3f 3d 02 a9 2e 3e 48 75 fb 3d
       -0.039227996 0.046861287 0.17056659 0.12278229
000140 d9 f4 47 3d 43 7a 5e 3d 0e b4 a3 3d 02 f3 49 bd
       0.04881749 0.054315817 0.07993327 -0.049304016
000150 a0 1d 1f 3d e5 7f d4 bd 6c 90 25 3e 29 b7 cc bc
       0.038846612 -0.103759564 0.16168374 -0.024989681
000160 d1 8b cd 3d 5c 92 b0 3c 21 28 9e ba 32 72 27 3c
       0.100364335 0.021554165 -0.0012066403 0.010220097
000170 9e 11 3e bd b2 63 df 3a 27 2a ab bd 56 b4 f0 bd
       -0.04640352 0.0017043261 -0.08357649 -0.11753146
000180 59 e5 f9 3d 37 68 61 3d 17 44 32 3e c5 fd 33 3d
       0.12201948 0.055031028 0.17408787 0.043943185
000190 3f a9 2e bd ed 99 93 bc 09 ef 10 bd 2d 2e 7a 3b
       -0.042641874 -0.018017733 -0.03538421 0.0038174496
0001a0 cb fd 85 bc f0 5f 1d 3d 37 48 39 3c dc 11 1c 3c
       -0.01635637 0.03842157 0.011308721 0.009525742
0001b0 ad 8f ac 3c 4a b9 06 bc 5b 12 5d bd d7 37 f8 bd
       0.021064604 -0.008222887 -0.053972583 -0.121200256
0001c0 aa 74 03 bd c7 15 d3 bc fc 39 90 3c c1 9b 56 3c
       -0.03209368 -0.02576722 0.017605774 0.013098658
0001d0 71 de 0b 3c ed af 54 3d b4 cd 44 3d da c8 4c bd
       0.008536921 0.05192559 0.048047736 -0.049996234
0001e0 3f d0 3e bd 23 b4 35 be 76 2d 17 be 17 93 02 be
       -0.046585318 -0.17744498 -0.14763436 -0.12751423
0001f0 22 df 51 bd 90 62 f8 bb 81 af 8e be 43 e4 a8 bd
       -0.051238187 -0.007580109 -0.27868274 -0.082466625
000200 87 0f b4 be 93 3e a8 3d 33 fe b0 bc 11 a7 1e be
       -0.35168096 0.0821506 -0.021605587 -0.15493418
000210 4c 01 8b 3c 6b 52 8b bd fa f0 9e be 83 87 b6 bd
       0.016968392 -0.06802829 -0.31043226 -0.089125656
000220 8e 1a 0a ba 7f c3 3a bd 72 4b 74 3e af 47 18 3d
       -0.0005268239 -0.045596596 0.23856905 0.037177738
000230 72 d2 d2 bc 98 ac e5 3d 4b 20 b8 3d 95 7d 89 3c
       -0.025735114 0.1121456 0.089905344 0.016783515
000240 c3 35 e0 3b 2b b0 37 3e c4 a8 88 3d 0b 3c 09 3d
       0.0068423464 0.17938296 0.066728145 0.033504527
000250 c8 b5 a0 3d 5b 44 32 3e 2c 2c c0 3d ad 55 d7 bc
       0.07847172 0.17408888 0.09383425 -0.02628597
000260 f2 94 1a bb 61 68 4f bd e7 fc b5 bd b8 46 44 bc
       -0.0023587313 -0.050636653 -0.08886128 -0.011979751
000270 0c 1e cb bd be 29 98 bd 04 b3 8e bd e0 fb 55 bd
       -0.0991784 -0.07429837 -0.06967738 -0.05224216
000280 5c 63 d9 bd df 4a 96 be 43 e7 95 bd fb 90 5b bd
       -0.106146544 -0.29353997 -0.073195 -0.05360506
000290 bd 82 12 3c e3 bc 09 bd 3d 21 25 3c b3 93 31 3d
       0.008942303 -0.033627402 0.010078725 0.043353748
0002a0 9f ed ad bc b1 08 9e 3d 9d 13 c5 3d 79 d9 92 be
       -0.02123147 0.077165015 0.096228816 -0.28681543
0002b0 62 b7 85 be ab be 86 be bf c2 b0 bc 1d 48 38 be
       -0.26116472 -0.26317343 -0.021577237 -0.17996259
0002c0 46 f9 a0 3e 25 9f 67 3e b1 d9 1f 3e 98 dc b2 3d
       0.3144018 0.22619303 0.15610386 0.08733481
0002d0 74 a6 27 3d 53 4d b3 3d de a5 6f be 7b f3 7c 3e
       0.040930226 0.08754983 -0.23403117 0.24702255
0002e0 4c 71 1a 3e c5 ca 7b be c5 7a f5 bc 71 f8 ad bc
       0.15082282 -0.24589069 -0.029965768 -0.02123663
0002f0 7e b9 19 3e c2 d1 0f be b4 b8 d3 be 01 94 a7 bd
       0.15012166 -0.1404486 -0.41351855 -0.081825264
000300 73 2a b8 3c fc cc 37 3e dd 9f 20 bd b4 67 bb bd
       0.022481179 0.17949289 -0.039214958 -0.09150639
000310 fe 3e 84 bd 92 fb 85 bc e6 5c 08 3d 39 7a 87 3e
       -0.06457327 -0.01635531 0.03329172 0.26460436
000320 f7 bf c6 3d ea 8e d2 be 1a e5 cb bd cc 36 cd bd
       0.09704583 -0.4112466 -0.09955807 -0.10020217
000330 de 69 a3 bc c9 ba 51 3e 44 f0 a2 bd 44 bd a9 bd
       -0.019947942 0.20481409 -0.07955983 -0.08288053
000340 25 e2 d9 3d 5a 67 87 3e 4f 94 ba bd f8 a2 0a 3f
       0.10638837 0.26446038 -0.09110319 0.5415492
000350 9a 43 35 3e ed bf 5b be c2 41 ce 3e fe 26 4c 3d
       0.17701569 -0.21459933 0.40284544 0.049841873
000360 9c 3f 3a be da 21 c2 3d d6 33 b8 bd 8f a0 c5 bc
       -0.18188328 0.09479113 -0.08994262 -0.024124412
000370 b1 92 a2 3e 79 40 f6 3e ba a5 06 3f ce ba da 3e
       0.31752542 0.48096064 0.5259663 0.42720646
000380 39 45 df 3c 3a 2b 9e bd 23 39 8b bd 72 42 38 bc
       0.027254688 -0.077230886 -0.06798007 -0.011246311
000390 9a ae bd bc 1a 4a 2c bd 7a db 30 bd bc a0 1e bd
       -0.023154546 -0.042062856 -0.04317806 -0.038727507
0003a0 24 92 21 bd f8 e0 9f bb e8 22 bb bd 92 54 92 3d
       -0.03944601 -0.0048791133 -0.09137517 0.07145037
0003b0 69 b6 e7 bd 6d 77 fd bc b8 65 a0 bc 20 62 1f bd
       -0.11314089 -0.030940736 -0.019579753 -0.03891194
0003c0 0e 7c c7 3c 51 04 74 bd 32 96 dc bd 4b bb 01 bd
       0.024351146 -0.05957443 -0.10770835 -0.031672757
0003d0 fa cb de bd 9c 15 bc bc 9e dc f0 bd 83 e1 b9 bd
       -0.10878749 -0.022959523 -0.117608294 -0.09076216
0003e0 a8 ff 8b bd 16 73 03 3d 79 91 c8 3c 83 16 10 bd
       -0.06835872 0.032092176 0.02448343 -0.03517772
0003f0 df 2e 55 bd 7d c3 2e 3d 59 a1 9a 3d 24 6b 1c 3d
       -0.052046653 0.0426669 0.07550306 0.038188115
